3. apoch 30
에포크가 늘어나서 training accuracy는 늘어났는데 test 정확도는 낮아짐..
_________________________________________________________________
 Layer (type)                Output Shape              Param #
=================================================================
 random_flip (RandomFlip)    (None, 64, 64, 1)         0

 conv2d (Conv2D)             (None, 64, 64, 32)        320

 max_pooling2d (MaxPooling2D  (None, 32, 32, 32)       0
 )

 conv2d_1 (Conv2D)           (None, 32, 32, 64)        18496

 max_pooling2d_1 (MaxPooling  (None, 16, 16, 64)       0
 2D)

 dropout (Dropout)           (None, 16, 16, 64)        0

 conv2d_2 (Conv2D)           (None, 16, 16, 128)       73856

 max_pooling2d_2 (MaxPooling  (None, 8, 8, 128)        0
 2D)

 flatten (Flatten)           (None, 8192)              0

 dense (Dense)               (None, 128)               1048704

 dropout_1 (Dropout)         (None, 128)               0

 dense_1 (Dense)             (None, 1)                 129

=================================================================
Total params: 1,141,505
Trainable params: 1,141,505
Non-trainable params: 0
_________________________________________________________________
Epoch 1/30
25/25 [==============================] - 49s 2s/step - loss: 0.6949 - accuracy: 0.5200 - val_loss: 0.6853 - val_accuracy: 0.5584
Epoch 2/30
25/25 [==============================] - 46s 2s/step - loss: 0.6786 - accuracy: 0.5723 - val_loss: 0.6621 - val_accuracy: 0.5972
…
