Malware Bazaar 에서 랜덤으로 뽑은 악성코드와 윈도우 기본 파일&정상파일 데이터 셋 일부로 test한 결과.
_________________________________________________________________
 Layer (type)                Output Shape              Param #
=================================================================
 random_flip (RandomFlip)    (None, 64, 64, 1)         0

 conv2d (Conv2D)             (None, 64, 64, 32)        320

 max_pooling2d (MaxPooling2D  (None, 32, 32, 32)       0
 )

 conv2d_1 (Conv2D)           (None, 32, 32, 64)        18496

 max_pooling2d_1 (MaxPooling  (None, 16, 16, 64)       0
 2D)

 dropout (Dropout)           (None, 16, 16, 64)        0

 conv2d_2 (Conv2D)           (None, 16, 16, 128)       73856

 max_pooling2d_2 (MaxPooling  (None, 8, 8, 128)        0
 2D)

 flatten (Flatten)           (None, 8192)              0

 dense (Dense)               (None, 128)               1048704

 dropout_1 (Dropout)         (None, 128)               0

 dense_1 (Dense)             (None, 1)                 129

=================================================================
Total params: 1,141,505
Trainable params: 1,141,505
Non-trainable params: 0
_________________________________________________________________
2/2 [==============================] - 0s 13ms/step - loss: 27.9901 - accuracy: 0.9362
정답률: 0.936170220375061       loss: 27.990074157714844

run time:  0.6361076831817627