1. epoch 10
_________________________________________________________________
 Layer (type)                Output Shape              Param #
=================================================================
 random_flip (RandomFlip)    (None, 64, 64, 1)         0

 conv2d (Conv2D)             (None, 64, 64, 32)        320

 max_pooling2d (MaxPooling2D  (None, 32, 32, 32)       0
 )

 conv2d_1 (Conv2D)           (None, 32, 32, 64)        18496

 max_pooling2d_1 (MaxPooling  (None, 16, 16, 64)       0
 2D)

 dropout (Dropout)           (None, 16, 16, 64)        0

 conv2d_2 (Conv2D)           (None, 16, 16, 128)       73856

 max_pooling2d_2 (MaxPooling  (None, 8, 8, 128)        0
 2D)

 flatten (Flatten)           (None, 8192)              0

 dense (Dense)               (None, 128)               1048704

 dropout_1 (Dropout)         (None, 128)               0

 dense_1 (Dense)             (None, 1)                 129

=================================================================
Total params: 1,141,505
Trainable params: 1,141,505
Non-trainable params: 0
_________________________________________________________________
Epoch 1/10
25/25 [==============================] - 52s 2s/step - loss: 7.7643 - accuracy: 0.4948 - val_loss: 0.6924 - val_accuracy: 0.5234
Epoch 2/10
25/25 [==============================] - 56s 2s/step - loss: 0.6911 - accuracy: 0.5273 - val_loss: 0.6887 - val_accuracy: 0.5562
…
