2. epoch 17
_________________________________________________________________
 Layer (type)                Output Shape              Param #
=================================================================
 random_flip (RandomFlip)    (None, 64, 64, 1)         0

 conv2d (Conv2D)             (None, 64, 64, 32)        320

 max_pooling2d (MaxPooling2D  (None, 32, 32, 32)       0
 )

 conv2d_1 (Conv2D)           (None, 32, 32, 64)        18496

 max_pooling2d_1 (MaxPooling  (None, 16, 16, 64)       0
 2D)

 dropout (Dropout)           (None, 16, 16, 64)        0

 conv2d_2 (Conv2D)           (None, 16, 16, 128)       73856

 max_pooling2d_2 (MaxPooling  (None, 8, 8, 128)        0
 2D)

 flatten (Flatten)           (None, 8192)              0

 dense (Dense)               (None, 128)               1048704

 dropout_1 (Dropout)         (None, 128)               0

 dense_1 (Dense)             (None, 1)                 129

=================================================================
Total params: 1,141,505
Trainable params: 1,141,505
Non-trainable params: 0
_________________________________________________________________
Epoch 1/17
25/25 [==============================] - 55s 2s/step - loss: 7.5116 - accuracy: 0.5134 - val_loss: 0.6914 - val_accuracy: 0.5325
Epoch 2/17
25/25 [==============================] - 58s 2s/step - loss: 0.6848 - accuracy: 0.5515 - val_loss: 0.6789 - val_accuracy: 0.5806
…
